data.pth (torch, 6431 bytes, 6 tensors)

l1.weight f4 [8, 77]
0	0x3f058592	0.5215694
1	0x3efabe46	0.48973292
2	0xbdc3567e	-0.095379815
3	0xbf2ee759	-0.6832176
4	0xbf2edf0e	-0.68309104
5	0xbeac94e7	-0.33707353
6	0xbdceec94	-0.101037174
7	0x3f50c09a	0.81543887
8	0x3e01b31f	0.12665986
9	0xbdf8d3dd	-0.12149785
10	0xbc361cfd	-0.01111531
11	0xbef29fe9	-0.47387627
12	0xbd20d3d1	-0.039264504
13	0xbecc38a3	-0.3988696
14	0x3e8330d5	0.25623193
15	0xbed011a1	-0.4063845
16	0x3cfeaf13	0.031089341
17	0xbdd460c7	-0.10370021
18	0x3edc3f36	0.43016976
19	0xbe1a67f3	-0.15078716
20	0x3e8acc6a	0.2710908
21	0x3dff0e44	0.12453893
22	0xbe167107	-0.14691554
23	0xbe9184d0	-0.2842164
24	0x3f560fcf	0.8361787
25	0x3e283976	0.1642817
26	0x3da5b5cd	0.08091316
27	0xbf2eda20	-0.6830158
28	0x3ec140d3	0.3774477
29	0xbf2ed842	-0.68298733
30	0xbf2ed459	-0.68292767
31	0x3ed2e782	0.4119225
32	0xbecc596b	-0.3991197
33	0xbcd9acd6	-0.026571672
34	0xbe5673e3	-0.20942645
35	0xbda69def	-0.08135592
36	0x3e685f79	0.2269267
37	0x3e9a58c5	0.3014585
38	0x3e9ddd12	0.30832726
39	0x3eb96c7b	0.36215577
40	0x3efc165e	0.49235815
41	0xbf1f5be4	-0.6224959
42	0x3edab0d6	0.4271304
43	0x3e8a08f5	0.2695996
44	0xbcf987d8	-0.030460283
45	0x3eb5f1a9	0.35535935
46	0x3ee2b871	0.44281343
47	0xbdfca810	-0.12336743
48	0x3e1f216a	0.1554009
49	0xbef32473	-0.47488746
50	0xbbc25124	-0.005930083
51	0x3e12c891	0.14334323
52	0xbc0ed2bb	-0.008717234
53	0x3ddd22a2	0.10797621
54	0x3e8a34f3	0.26993522
55	0x3ce829be	0.028340217
56	0x3ecdd478	0.40201163
57	0x3ded745b	0.11594459
58	0x3e1056d6	0.14095625
59	0xbe160309	-0.14649595
60	0x3ea9f22c	0.33192575
61	0x3d9a3a75	0.07530681
62	0x3efa4696	0.48881978
63	0x3f5987fb	0.84973115
64	0x3ecc362d	0.39885083
65	0xbce52ac3	-0.027974492
66	0xbe285564	-0.16438824
67	0x3f2bd1c4	0.6711695
68	0xbe566f0a	-0.20940796
69	0xbd88134a	-0.06644304
70	0x3ce98bcd	0.028509045
71	0x3df2487c	0.118302315
72	0xbe80fa12	-0.25190789
73	0xbcbf3cee	-0.023344483
74	0x3e0fbf17	0.14037739
75	0x3e9585b5	0.29203573
76	0x3d861b1f	0.06548142
77	0x3eb70866	0.35748595
78	0x3f2a6c71	0.6657172
79	0x3f142ac3	0.5787775
80	0xbf3b8cd7	-0.7326178
81	0xbe9fc8ae	-0.31207794
82	0xbef56fff	-0.4793701
83	0x3e6989f1	0.22806527
84	0x3c95a4b8	0.01826702
85	0x3c726a18	0.0147958025
86	0x3ed65375	0.41860548
87	0x3f41d57b	0.7571637
88	0xbf3bbdb4	-0.7333634
89	0x3ea1453e	0.3149814
90	0xbe2c5fa3	-0.16833358
91	0x3f516a6e	0.81803024
92	0xbe978263	-0.29591665
93	0x3e3e6cea	0.18596235
94	0x3f805187	1.002488
95	0x3f5c6bc3	0.8610193
96	0xbe8d10ba	-0.27551824
97	0x3f39926e	0.7248906
98	0x3ebc1dd8	0.3674152
99	0xbe9ca41e	-0.3059396
100	0xbe3176be	-0.17330453
101	0xbdb65362	-0.08902623
102	0xbdc9ed63	-0.09859731
103	0x3f1b432f	0.6064939
104	0xbeb9b80f	-0.36273238
105	0x3ea7f5cd	0.3280472
106	0xbef48b51	-0.4776254
107	0xbee08d40	-0.43857765
108	0x3e550837	0.20803915
109	0x3c31177c	0.010808822
110	0x3e69d8ec	0.22836655
111	0xbe4051d9	-0.18781222
112	0x3d2bcb3d	0.04194187
113	0x3f67998a	0.90468657
114	0x3f492037	0.7856478
115	0x3f4000a4	0.7500098
116	0x3efa852b	0.48929724
117	0xbd3a0231	-0.045412246
118	0xbf05ef8e	-0.52318656
119	0x3f5304d6	0.82429254
120	0x3e49d1b4	0.19708902
121	0x3f2bd524	0.671221
122	0x3f540a4f	0.8282823
123	0x3f0ff697	0.5623564
124	0xbd0b9b45	-0.034083623
125	0x3f1d20d3	0.6137821
126	0xbe6fdf54	-0.23425037
127	0x3f556a45	0.8336528
128	0xbd8c382b	-0.06846651
129	0x3d46e499	0.04855785
130	0x3ee7687c	0.45196903
131	0x3eefac37	0.46811077
132	0x3e4a5191	0.19757678
133	0xbd4b8bab	-0.049693745
134	0x3f3cfaa8	0.7381997
135	0x3f426695	0.7593778
136	0xbe893af9	-0.26802805
137	0x3f18c452	0.5967456
138	0x3f7f263d	0.9966772
139	0x3f5a9c01	0.85394293
140	0x3f0dd0cc	0.55396724
141	0x3e9bef4b	0.30456004
142	0xbc6c0206	-0.014404779
143	0x3ee95d0e	0.45578808
144	0x3ebf2206	0.37330645
145	0xbe4037d7	-0.18771301
146	0xbd26bf90	-0.040710032
147	0x3f3493bc	0.70537925
148	0x3ef7e3ed	0.4841608
149	0xbedb5a09	-0.4284213
150	0x3f11c90b	0.5694739
151	0x3f1b42e5	0.6064895
152	0x3f2497bf	0.64294046
153	0x3dd44897	0.10365408
154	0xbe2b164f	-0.16707729
155	0x3e89dc9a	0.26926118
156	0x3f2d6c07	0.6774296
157	0xbf0a33f1	-0.53985506
158	0x3f7e8476	0.9942087
159	0xbee359da	-0.4440449
160	0x3e6c17fd	0.23056026
161	0xbf0cd228	-0.55008173
162	0xbe12ab29	-0.14323105
163	0x3ee72157	0.45142624
164	0x3f155fd8	0.5834937
165	0xbeff3ffc	-0.49853504
166	0x3ea59611	0.32341054
167	0xbea2c0e8	-0.317878
168	0x3f53fd53	0.8280842
169	0xbe399a69	-0.18125309
170	0x3ebce882	0.3689614
171	0x3f00f7db	0.503782
172	0x3f40fdab	0.75387067
173	0xbe32be64	-0.17455441
174	0x3e94c0e5	0.29053417
175	0x3ed2c0fc	0.4116286
176	0xbe87c9ff	-0.26521298
177	0xbe6dc991	-0.23221423
178	0xbf0cdb45	-0.5502208
179	0x3ee84890	0.4536786
180	0xbe5e0728	-0.21682417
181	0xbf0cd040	-0.55005264
182	0xbe50947e	-0.20369145
183	0xbf0cd0d9	-0.55006176
184	0xbf0ccff1	-0.55004793
185	0x3f61812b	0.8808772
186	0x3e2eefd7	0.17083679
187	0x3ec9e0d6	0.3942935
188	0xbd46cc2c	-0.048534557
189	0x3eaf4060	0.34228802
190	0xbe604d7c	-0.21904558
191	0x3ee12e71	0.43980744
192	0xbe9713dd	-0.29507342
193	0x3ed735fa	0.42033368
194	0xbeaba60d	-0.33525124
195	0xbf2cf781	-0.6756516
196	0x3f4fe58f	0.81209654
197	0xbdc818b1	-0.097703345
198	0x3f0a55ea	0.54037344
199	0x3ec20b64	0.37899315
200	0x3f1aae96	0.60422647
201	0xbe1431f4	-0.1447218
202	0x3e886c7f	0.26645276
203	0x3f8e4462	1.1114619
204	0x3f1a889f	0.6036472
205	0x3e803f2b	0.25048193
206	0x3edecdb7	0.43516323
207	0x3f1baed0	0.6081362
208	0x3f0aa30f	0.5415506
209	0xbd08bb6f	-0.033381876
210	0xbe48fb80	-0.1962719
211	0xbefa6d00	-0.48911285
212	0x3f285c3a	0.65765727
213	0xbe90a19f	-0.28248307
214	0x3e5725d0	0.21010518
215	0x3f64b682	0.89340985
216	0x3ec80c78	0.39072013
217	0xbf0cd101	-0.55006415
218	0xbe3862a1	-0.18006374
219	0x3ca71d84	0.020399816
220	0xbed86717	-0.4226615
221	0x3eed920e	0.46400493
222	0xbd54ef47	-0.051986005
223	0x3d32fc47	0.04369762
224	0x3dd777f7	0.10520928
225	0x3f2ad1e4	0.6672652
226	0xbe5e2b2a	-0.21696153
227	0xbe72697a	-0.23673049
228	0x3ef09442	0.46988112
229	0xbc97e1fa	-0.018540371
230	0x3eeb79e3	0.4599143
231	0xbe89fdfb	-0.26951584
232	0xbefe4d8c	-0.4966854
233	0x3ecfe365	0.40603176
234	0x3f57b066	0.8425354
235	0xbf0282ef	-0.5098104
236	0x3ef1b2c1	0.4720669
237	0x3ec4054e	0.38285297
238	0x3f59013d	0.84767514
239	0xbe15eb2a	-0.14640489
240	0x3ea949d9	0.33064154
241	0x3e9436af	0.2894797
242	0xbf2de5a2	-0.67928517
243	0x3ed3f6ef	0.41399333
244	0x3f00adb3	0.50265044
245	0xbe99373d	-0.29924956
246	0xbe77a1fc	-0.24182886
247	0xbdb95192	-0.090487614
248	0x3e4c2552	0.19936112
249	0xbec50536	-0.38480538
250	0xbe699604	-0.22811133
251	0xbe8617a1	-0.26189902
252	0xbdc87c43	-0.09789326
253	0xbde332aa	-0.11093648
254	0x3ee480e0	0.44629574
255	0x3f48aa6e	0.78385055

l1.bias f4 [8]
0	0x3f2ede58	0.6830802
1	0x3f6bc8ac	0.92103076
2	0x3f0cd0e7	0.5500626
3	0x3f5f48cd	0.8722046
4	0x3f4a5780	0.79039764
5	0x3f497e55	0.7870839
6	0x3f5139cf	0.81728834
7	0x3f23a8ed	0.63929635

l2.weight f4 [8, 8]
0	0xbfba8a78	-1.4573507
1	0xbdf403c7	-0.11914783
2	0xbe7d7667	-0.24752198
3	0x3fb31ed0	1.3993778
4	0x3f9d0e41	1.2269975
5	0xbf047075	-0.51734096
6	0x3f9085f9	1.1290885
7	0x3fa3160e	1.2741106
8	0x3f836f17	1.0268277
9	0x3f2b747a	0.66974604
10	0xbfa52f19	-1.2904998
11	0xbf737d78	-0.95113325
12	0x3fbdd65a	1.483104
13	0x3fafbec3	1.3730091
14	0xbf75428e	-0.9580468
15	0x3f8d9b75	1.1063067
16	0x3f33e018	0.70263815
17	0x3fb58b76	1.4183185
18	0xbe9e2e68	-0.3089478
19	0x3f5bb941	0.8582955
20	0xbe35b1c7	-0.17743598
21	0xbf3478de	-0.7049693
22	0xbf1f6679	-0.62265736
23	0x3f985aea	1.1902745
24	0x3ebad29a	0.364888
25	0x3fae7dff	1.3632201
26	0x3fb6cec0	1.4281845
27	0xbf6d6c84	-0.92743707
28	0xbdc4776d	-0.09593091
29	0xbe497fce	-0.1967766
30	0x3f2c488a	0.67298186
31	0xbe0cdb76	-0.13755593
32	0x3f821509	1.016267
33	0x3e9592a0	0.29213428
34	0xbeae5aed	-0.34053746
35	0x3f908d73	1.1293167
36	0xbf38be17	-0.72165054
37	0x3fa08109	1.2539378
38	0xbdf4668c	-0.11933622
39	0xbf7fce9e	-0.9992465
40	0xbf9d61d7	-1.2295483
41	0xbdffefd6	-0.12496917
42	0xbdf352eb	-0.1188105
43	0xbe4efeec	-0.20214432
44	0x3f070bc3	0.5275232
45	0x3f9627d5	1.1730906
46	0x3f429c5b	0.7601983
47	0x3e6e8fec	0.2329709
48	0xbeac3cef	-0.3364024
49	0x3e09292e	0.13394615
50	0xbeaf93e3	-0.34292516
51	0xbb86be3b	-0.0041120327
52	0xbd9448ba	-0.07240434
53	0xbe1b0ecc	-0.15142363
54	0x3e535865	0.20639189
55	0xbe7d7818	-0.24752843
56	0x3f1ff41a	0.62481844
57	0x3f1441c9	0.5791288
58	0xbf800a9d	-1.0003239
59	0x3fb3a0d4	1.4033456
60	0xbf612bb1	-0.8795729
61	0x3f5f0782	0.8712083
62	0x3f25d27a	0.64774287
63	0xbec3806d	-0.3818392

l2.bias f4 [8]
0	0x3f12b679	0.5730968
1	0x3ef3c62c	0.4761213
2	0x3e91ca4e	0.2847466
3	0x3f1775f3	0.5916435
4	0x3ecb89ae	0.3975348
5	0x3e8ea1e6	0.27857894
6	0xbeb07cc1	-0.3447018
7	0x3ea21385	0.31655517

l3.weight f4 [11, 8]
0	0xbd172e17	-0.03690919
1	0xbf3a0c41	-0.7267495
2	0xbf8f65f4	-1.1202989
3	0xbfb93b08	-1.447114
4	0x3e97e956	0.2967021
5	0x3f522c49	0.82098824
6	0xbd240625	-0.040044922
7	0x3f43a413	0.7642223
8	0x3f135e73	0.57565993
9	0xbfaab500	-1.3336487
10	0xbf8a2be7	-1.0794648
11	0x3f106cfa	0.56416285
12	0xbfd5ef3a	-1.6713631
13	0x3f2ad395	0.667291
14	0x3dbd82ac	0.09253439
15	0xbfbc5080	-1.4712067
16	0x3e05e1a4	0.13074356
17	0x3f4e1d77	0.8051371
18	0xbf9d0b3f	-1.2269057
19	0xbfa11104	-1.2583318
20	0xbfaf6122	-1.3701518
21	0x3f5d1355	0.86357623
22	0xbdb2d2f0	-0.087316394
23	0xbfa5f5a5	-1.296559
24	0xbfa65ca6	-1.2997024
25	0xbf9e7774	-1.2380204
26	0x3e55fc98	0.20897138
27	0x3f80ec1b	1.0072054
28	0xbf8a7bee	-1.081907
29	0xbfa634d0	-1.2984867
30	0xbeab84b4	-0.33499682
31	0xbf98d070	-1.193861
32	0xbf87ee19	-1.0619537
33	0x3edb627d	0.42848578
34	0x3f007080	0.5017166
35	0x3e875f39	0.26439837
36	0xc0036cac	-2.0535078
37	0xbf3a6a5e	-0.72818553
38	0xbdee6490	-0.116402745
39	0xbfabe17d	-1.3428189
40	0xbf9b5ccc	-1.2137694
41	0x3ccdb002	0.025108341
42	0x3e40c8b9	0.1882657
43	0xbfbe121f	-1.484928
44	0x3f8debac	1.1087546
45	0xbf99fff6	-1.2031238
46	0xbea2e6c7	-0.31816694
47	0x3eeab783	0.45843133
48	0x3f804fd9	1.0024368
49	0xbdcdf8be	-0.100572094
50	0x3e389d2c	0.18028706
51	0xbf9d5201	-1.2290651
52	0xbfc0fe39	-1.5077583
53	0xbe4818e3	-0.19540744
54	0x3e45065a	0.19240704
55	0xbe4208fc	-0.1894874
56	0xbf844966	-1.03349
57	0xbf4bdd87	-0.796349
58	0xbf7361ec	-0.9507129
59	0x3f3723f2	0.71539223
60	0x3ee3ac32	0.44467312
61	0xbe66e035	-0.22546466
62	0xbc5e6e85	-0.013576155
63	0x3e41538c	0.18879527
64	0xbeb6e193	-0.35718974
65	0xbe2be4cd	-0.167865
66	0x3f1c1f8d	0.6098564
67	0xbf45ea70	-0.7731085
68	0xbdc279bf	-0.094958775
69	0xbd4356b2	-0.0476901
70	0x3e5bcd3a	0.21465006
71	0x3ea88630	0.32914877
72	0x3eb48146	0.35254878
73	0xbfa46564	-1.2843442
74	0x3f2fa2ca	0.6860777
75	0x3dbe8c4b	0.093041025
76	0xbf84a77f	-1.0363616
77	0xbfb53da4	-1.4159436
78	0x3c8a7db0	0.016905636
79	0xbe7bef11	-0.24602915
80	0xbf53cac5	-0.82731277
81	0x3f806461	1.0030633
82	0x3e742c59	0.23845042
83	0xbf72b88d	-0.9481285
84	0xbe693865	-0.22775419
85	0xbe92ff0d	-0.28710213
86	0xbea720b0	-0.32642126
87	0xbeb73fe7	-0.3579094

l3.bias f4 [11]
0	0x3d275b0a	0.040858306
1	0x3d9d7c72	0.07689752
2	0x3d5ce82f	0.053932365
3	0xbdad0c3f	-0.084496014
4	0xbc27d76b	-0.010244231
5	0xbd4ddf2e	-0.05026167
6	0x3e3fdd39	0.18736733
7	0x3eb5b542	0.3548985
8	0xbf31b466	-0.6941589
9	0xbedeffc0	-0.43554497
10	0xbe6e0df4	-0.2324751
